data.pth (torch, 6698 bytes, 6 tensors)

l1.weight f4 [8, 82]
000000 e8 0d 36 3e 21 96 01 bf 1f 58 06 bf d5 9a f8 3e
       0.17778742 -0.50619704 -0.5247821 0.48555627
000010 d2 c5 f3 3e a8 80 05 bf 1e 5b 41 3f 49 44 14 3f
       0.47611862 -0.5214944 0.7552966 0.57916695
000020 61 7b 07 bf 80 ae cd 3e c5 a5 4b be 76 73 6c 3e
       -0.52922636 0.40172195 -0.19887455 0.2309092
000030 34 59 66 be 3c e0 d8 3e 8b e7 59 3e 72 0a e7 3e
       -0.22494966 0.42358577 0.21279733 0.45125157
000040 ee 35 de be d6 77 75 be 41 0c 82 3e cb a9 d9 3e
       -0.4340052 -0.23971495 0.25399974 0.42512354
000050 5b 4c d6 3e 62 6a 0d 3e 1a e6 01 bf cd f4 13 bf
       0.4185513 0.13810113 -0.5074173 -0.5779541
000060 0a da 04 be 65 2f 0e 3f 0e aa ba bd 4b 0e 0a be
       -0.129738 0.5554107 -0.091144666 -0.13482015
000070 cc 11 b2 3e 84 9f 8f 3d 5a 54 fe be 92 b4 7e be
       0.34779203 0.07012847 -0.4967373 -0.2487357
000080 25 0b 02 bf 36 40 7d 3e 2c 07 02 bf 84 04 02 bf
       -0.50798255 0.24731526 -0.50792193 -0.5078814
000090 bc b9 81 3e da c1 6f bd a6 c0 e1 3e 1b 3a c7 3d
       0.25337017 -0.05853448 0.44092292 0.097278796
0000a0 8a 25 fc 3e ca ba a6 3e 71 a6 9a be bb 62 d4 bd
       0.4924739 0.32564384 -0.3020511 -0.10370394
0000b0 e5 a1 f3 bd 06 6a 28 3f 24 b7 2f bd ba 14 83 3e
       -0.11896113 0.6578678 -0.042899266 0.2560175
0000c0 ce 04 59 3e 9a 64 26 bd 8e 3e de 3e c7 b3 b2 3e
       0.21193239 -0.040623285 0.434071 0.34902784
0000d0 5e 25 54 be a5 72 9e be c1 15 00 3f 4c 12 02 bf
       -0.2071738 -0.30946842 0.50033194 -0.5080917
0000e0 fc 41 c3 be df d7 d4 be 61 1c 04 3e d9 6a f7 be
       -0.3813628 -0.41570947 0.1290145 -0.48323706
0000f0 78 28 57 be af f6 08 3f 0c 86 30 3e c5 13 c7 be
       -0.21011531 0.5350141 0.17238635 -0.3888227
000100 cc 7d 73 be 0f 25 60 bd 60 c6 d1 3e 9e 24 80 3e
       -0.23778456 -0.05472284 0.4097166 0.25027937
000110 47 b1 f2 3d 8d 8b 8c bd 73 75 05 3f 57 6a 2f be
       0.11850219 -0.06862555 0.5213234 -0.17130409
000120 c4 f0 13 3e f4 5b 5c 3f ad 92 10 bf 09 41 da 3e
       0.14447314 0.8607781 -0.5647381 0.42627743
000130 9e 8d 0d 3f eb 24 9a be 95 84 48 3f 39 83 9d 3e
       0.55294216 -0.3010629 0.78327304 0.30764177
000140 ed 01 88 3e 69 3d 68 3f 07 da 6c 3e 7d ba 09 bf
       0.2656397 0.90718704 0.23130046 -0.53800184
000150 89 96 04 bd 70 18 3a 3e 27 4e df 3e 84 8d bb bd
       -0.032370124 0.18173385 0.43614313 -0.09157851
000160 a5 4c 4f 3f 8e 6c b2 3e ea 1c b7 3e 32 46 22 3e
       0.80976325 0.34848446 0.35764247 0.1584709
000170 a6 b0 a8 be 15 aa c6 3d 35 ff e0 3d 00 13 51 3e
       -0.32947272 0.09700409 0.10986177 0.20417404
000180 ad 6b 02 be 90 54 5a bd d1 7c b9 be 37 e1 93 3e
       -0.12736388 -0.0533033 -0.3622804 0.28882763
000190 3a 87 c0 3d 86 81 65 3e 4d 09 5a 3e 2c 62 af 3e
       0.094007924 0.2241269 0.2129261 0.34254587
0001a0 9f 59 a0 be d9 95 24 bf bd d4 ac bd 28 2e d4 3e
       -0.31318375 -0.6429115 -0.08439014 0.41441464
0001b0 30 1a 66 3d 12 06 3d 3e 38 3a 20 3b bb 9a d6 3d
       0.056177318 0.18459347 0.0024448764 0.10478731
0001c0 50 ba 09 bf 03 26 b3 3e d2 be 09 bf cf 87 03 3e
       -0.53799915 0.34989938 -0.53806794 0.12844776
0001d0 7a bb 09 bf aa c1 09 bf 5a 4a 3c 3e 5e ce a4 be
       -0.5380169 -0.5381113 0.18387738 -0.32188696
0001e0 7d c5 00 3f ba 8a 92 3e 10 b3 26 3f 36 3b 09 3f
       0.50301343 0.28621465 0.6511698 0.53605974
0001f0 0f dc 5c be 2c 1a 74 3f 08 83 a6 be d4 65 3e 3f
       -0.2156832 0.95352435 -0.32521844 0.7437413
000200 cd 5e 8d 3e 64 8d 4c bd 4a c6 1b 3e 7a f9 15 be
       0.2761139 -0.049939528 0.1521236 -0.14645949
000210 5c 4d c1 3e a8 08 01 3d 68 31 b3 bc 8a 7e 03 3f
       0.37754333 0.031502396 -0.021874145 0.5136496
000220 ed d4 03 3e 3a e4 08 3e db 3e 2b 3e 03 7e 2f bd
       0.12874193 0.13368312 0.16723196 -0.042844784
000230 bc e4 70 3f 89 b7 87 3e 9a 7e 94 be 21 35 58 3f
       0.9409902 0.26507214 -0.2900284 0.8445607
000240 07 c3 0f 3d bf 1c 31 3e 37 bf 0b 3f 5e b5 1e 3f
       0.035098102 0.17296122 0.54588646 0.61995494
000250 3f c7 0a be 69 88 98 3e 68 36 15 3f 6a d9 b7 3d
       -0.13552569 0.29791573 0.5828614 0.08977015
000260 1e ce 0a 3f b6 a9 e5 bd 15 f8 63 be 18 a1 be 3e
       0.5422076 -0.112140104 -0.22262605 0.3723228
000270 82 cf 58 3f 97 11 c4 3e 18 a5 7c 3e 2f 1e f2 bd
       0.8469163 0.3829467 0.24672353 -0.11822163
000280 f2 bb 97 bd bb ee 09 bd b1 83 00 bd 34 29 06 3d
       -0.074088946 -0.033674937 -0.03137559 0.032754138
000290 22 46 47 3f f3 ea 2e bf 28 69 2f bf e2 02 5c bf
       0.7784139 -0.68327254 -0.6851983 -0.859419
0002a0 57 6b c7 bd 07 07 22 bf 7f d3 27 bf 72 08 e1 be
       -0.0973727 -0.6329197 -0.6555709 -0.43951756
0002b0 ca 49 16 bf 65 f7 4a 3f 20 fb 10 3f 59 23 a1 3e
       -0.58706343 0.79283744 0.56633186 0.3147228
0002c0 a3 99 9e 3e c5 f3 cb be 75 2f 84 bc 9b d1 29 3e
       0.3097659 -0.3983442 -0.01613591 0.16583864
0002d0 b1 70 f2 be dd fe 14 bf de ff 01 bf 58 40 f4 be
       -0.47351602 -0.5820139 -0.5078105 -0.4770534
0002e0 64 be df be c9 ed fa 3e 3b 24 ca be 09 e5 21 3f
       -0.43699944 0.4900954 -0.39480767 0.63240105
0002f0 f1 17 20 be 44 67 3d 3e de 37 f7 3e 23 b0 47 be
       -0.15634133 0.18496424 0.4828481 -0.19500785
000300 d0 c6 e5 3d 4a 83 06 3f 03 04 28 bf 5d e7 ba be
       0.11219561 0.5254408 -0.6563112 -0.3650464
000310 77 3d 36 3f f7 9a bd 3e 1d ba 40 3f aa 09 29 3f
       0.7118754 0.3703229 0.75283986 0.6603037
000320 bf b9 de be e8 a7 20 3f c6 dc b9 be 2b 0e 65 bd
       -0.43501088 0.62756205 -0.3630125 -0.055921715
000330 6c 10 ed bd 79 cc 22 bf 4c 1c a0 be 2b d5 4c bf
       -0.11575398 -0.6359325 -0.3127159 -0.8001277
000340 21 5d 00 3f 8f ef 21 bf 2c 1e d2 3e 87 ca 95 3e
       0.50142103 -0.6325616 0.41038644 0.2925608
000350 25 b3 b0 3e 7b 2c fa bd 1a c7 04 bf f0 99 31 3f
       0.34511676 -0.12215515 -0.51866305 0.69375515
000360 8f 79 e4 bd 31 a1 fe be ac 7e 7b bc b4 d4 25 bf
       -0.11155998 -0.49732354 -0.015350025 -0.64777684
000370 d4 0c f8 be 68 b5 79 be 9e f5 89 3f cd 0c 2a bf
       -0.48447287 -0.24385607 1.0778081 -0.6642578
000380 7d 01 ba be 41 0d 0a bf 2d c1 50 3c ab e9 34 bf
       -0.3632926 -0.53926474 0.012741369 -0.7066905
000390 78 f2 ff 3e bc c7 f9 be bb c9 5c 3f 2f 54 1d 3f
       0.49989676 -0.48785198 0.86245316 0.6145658
0003a0 fb b1 04 3f 30 f5 bf 3e be 7a e4 3e be 96 b7 3e
       0.51834077 0.3749175 0.44624895 0.35857195
0003b0 c7 cd a1 3e 5a 33 d9 3e 9d 11 4f bf ac dc ed bb
       0.31602308 0.4242199 -0.8088625 -0.007258972
0003c0 0d 91 bb 3c c4 d2 c6 bd 3c fb b3 bd b4 40 20 3f
       0.022896314 -0.09708169 -0.087881535 0.6259873
0003d0 cf 71 8e 3e b1 f2 dd bd 7f 16 b5 3e 86 f3 26 bf
       0.27821204 -0.10837305 0.35368726 -0.6521534
0003e0 43 08 18 3f ab 9a e0 be 0b 0c 3f 3e 84 e5 15 3f
       0.59387606 -0.43868002 0.18656938 0.5855334
0003f0 ef 5c 18 bf bf da a1 be 7b d2 f6 3e 21 06 d3 3e
       -0.59516805 -0.31612203 0.4820746 0.41215613

l1.bias f4 [8]
000000 92 04 02 3f db ba 09 3f 8e 73 6c 3f cf f3 26 3f
       0.50788224 0.53800744 0.9236382 0.6521577
000010 e0 87 fd 3e 7d c8 69 3f 12 9b 4d 3f 89 d8 d7 3e
       0.49517727 0.91321546 0.80314744 0.4215739

l2.weight f4 [8, 8]
000000 1c 13 df be ab c8 93 3f ba 47 9b bf dd 74 9a be
       -0.43569267 1.1545614 -1.2131264 -0.30167285
000010 fa 51 16 bf 14 1d aa 3f cd 66 c0 3f 8d 22 d0 3e
       -0.58718836 1.3290124 1.5031372 0.4065136
000020 a9 15 b0 be 4b 07 a2 3e e3 57 a5 3f 00 91 b1 3f
       -0.34391525 0.3164619 1.2917446 1.3872375
000030 75 c4 0b bf 16 08 82 3f c1 16 dc be 5d b5 5b 3f
       -0.54596645 1.0158718 -0.4298611 0.85823613
000040 d8 67 3e 3f bb 74 4c be 0f 4a 35 bf 06 28 80 3f
       0.74377203 -0.19966404 -0.7081613 1.0012214
000050 f6 84 db 3f 37 47 cf be 72 9f ad bd 4a 92 ce 3f
       1.7149951 -0.4048402 -0.084776774 1.6138394
000060 e3 4a 2b bf 69 d1 e3 3e 21 51 7b 3f 54 7f 51 3f
       -0.66911143 0.44495705 0.9817067 0.8183491
000070 48 05 b9 be f6 9f 23 3f 77 b2 8f bf 8b 53 27 3f
       -0.36136842 0.63915956 -1.1226338 0.6536185
000080 4c 23 a3 3f 0b 84 35 3f 1c 68 27 bf 50 6d 55 3f
       1.2745147 0.70904607 -0.65393233 0.8336992
000090 e3 94 54 3e fe 60 27 bf 47 de e9 3f 1a a9 3d 3e
       0.20759921 -0.65382373 1.8270959 0.18521538
0000a0 1e e1 bc 3f 08 8a 4f 3f ec f1 a5 3f cb 41 14 3f
       1.47562 0.81069994 1.2964454 0.5791289
0000b0 4e 00 01 bd db 9a 70 bf de ad a5 3f ba 0e 16 bf
       -0.03149443 -0.9398629 1.2943685 -0.5861622
0000c0 f1 c9 c4 3f 6d 38 bf 3f 49 01 99 bc 48 ff bd bf
       1.5374128 1.4939095 -0.01867737 -1.4843531
0000d0 02 a7 94 3f 88 98 84 3f f0 ac b7 be a6 51 d7 3e
       1.1613467 1.0359049 -0.35874128 0.4205448
0000e0 ee 7d 1a bf b0 ae e2 bf ef 1c 29 3f a4 fb 73 3f
       -0.60348403 -1.770956 0.66059774 0.9530585
0000f0 17 6a ae 3f 6d 23 9e 3f 28 db cd 3d 5b bd 51 bf
       1.3626126 1.2354561 0.10051566 -0.8192956

l2.bias f4 [8]
000000 a0 38 b5 3e d4 bf d0 3e 0c 72 3b be 9f fe 25 be
       0.35394764 0.40771353 -0.18305224 -0.16210411
000010 24 f6 90 3e d4 12 09 3f 38 0f 02 3c b5 6a 58 3f
       0.2831279 0.53544354 0.007938199 0.8453782

l3.weight f4 [9, 8]
000000 fd f8 01 3f c4 b6 1c bc 4d 10 51 bf d5 bb f9 bf
       0.5077055 -0.009565059 -0.816655 -1.9510447
000010 30 41 99 bf 6a 0e 9c bf d8 a0 11 3e 5c 52 76 3f
       -1.1973019 -1.2191899 0.14221513 0.9621942
000020 86 e0 a6 bf 30 05 d7 3e ab 70 43 bd 26 81 ab 3f
       -1.3037269 0.41996145 -0.04771487 1.3398788
000030 fc f9 99 bf dc a6 00 be 6e d1 1a c0 56 16 18 3f
       -1.2029414 -0.12563652 -2.4190326 0.5940908
000040 e4 c5 d2 bf d4 18 8f 3e 6f 41 32 3f 54 e3 19 bf
       -1.6466641 0.2794863 0.69631094 -0.601125
000050 5d b6 c0 3d 10 b5 a5 be 01 b6 e8 be b4 73 51 bf
       0.09409783 -0.32364702 -0.45451358 -0.81817174
000060 b8 5b 35 3f 06 ff 22 bf d9 8a 86 bf 45 c6 d9 bf
       0.70843077 -0.63670385 -1.0511123 -1.7013632
000070 94 f8 aa 3e 67 47 f9 3d a5 5d ba 3e 35 3c 1e c0
       0.33392775 0.12171822 0.3639957 -2.4724247
000080 69 a2 f1 be a0 6c da bf 84 91 6a 3f 27 c0 30 c0
       -0.47194222 -1.70644 0.9162829 -2.761728
000090 fc 08 1f 3f ba 2f a3 be 3f 77 c3 bd ed 15 d8 bf
       0.62123084 -0.3187235 -0.09544229 -1.6881691
0000a0 f1 43 5a 3f 95 1e f0 3e 29 b4 26 3e 32 71 cc bc
       0.8525992 0.46898332 0.16279663 -0.02495632
0000b0 fe 71 f2 3e d0 df cb bf f1 67 c9 bf 15 46 ad bf
       0.47352594 -1.5927677 -1.5734845 -1.3537012
0000c0 ac eb 03 be 30 6a 82 3e 41 f2 c7 bf 02 dd 83 3f
       -0.1288287 0.2547164 -1.5620805 1.0301821
0000d0 75 bd df bf 11 32 a9 be 75 1e 19 3f db 6c c6 bf
       -1.7479693 -0.3304601 0.598121 -1.550197
0000e0 2e b5 bd bf 67 54 56 3e 4e 30 d1 bf 7b 06 aa bf
       -1.4820917 0.20930634 -1.6342866 -1.3283228
0000f0 31 9a 5b 3f be e4 b0 3f db 7d da bf 52 be 21 bf
       0.8578215 1.3819807 -1.7069658 -0.6318103
000100 cc 04 9d 3e 9b cc 05 3e e2 0c af 3e fb ce 5d be
       0.30667722 0.13066332 0.34189516 -0.21660988
000110 06 46 2a bf 1b 3c 14 c0 c9 df 8e 3e a2 c9 16 c0
       -0.665131 -2.3161685 0.2790511 -2.3560567

l3.bias f4 [9]
000000 f3 ef b2 3e 1d 98 ef 3c 8d e2 08 be 4a 88 e1 3d
       0.34948692 0.029247338 -0.13367672 0.11012323
000010 29 85 5a be bd 9e b9 be d9 36 f8 bd 99 f9 55 3e
       -0.21339859 -0.3625392 -0.12119836 0.20895995
000020 8f 5d e2 be
       -0.44212005
